control_tut/controllers/weights/rnn_weights-trial13405-err0.00005.npz (npz, 14743 bytes, 1 tensors)

arr_0 f4 [3896]
000000 cd 97 f0 bf 65 17 8c bf c9 be cf bf fe f4 36 bf
       -1.8796326 -1.094464 -1.6230098 -0.7146758
000010 0d 0d fc be c6 68 ee 3e a5 8e 46 bd a4 f8 26 3f
       -0.49228707 0.4656431 -0.04847588 0.65223145
000020 e4 dc d5 bd 0d a6 e5 bf d0 ca ee 3e 79 6b 0f 3f
       -0.10442522 -1.79413 0.4663911 0.56023365
000030 80 0a 4e be 44 23 b1 bf 7b 77 9b bc 62 de 2e bf
       -0.20121193 -1.3838887 -0.018977871 -0.6830808
000040 64 d0 68 3f ca 7a fa be e9 c4 a3 bf 34 15 23 3e
       0.9094298 -0.48921806 -1.2794467 0.15926057
000050 ec 3f 84 bf b2 5a 2d 3f 62 c9 2b bc a0 7f b9 be
       -1.0332007 0.67716515 -0.010485025 -0.36230183
000060 4b b4 70 bf f7 0a 1b bf 8b 16 8e 3d 10 97 84 bf
       -0.94025105 -0.60563606 0.069378935 -1.0358601
000070 9a 2a fc bf b0 96 f1 bf 62 c9 08 bf ab b5 84 bb
       -1.9700501 -1.8874111 -0.53432286 -0.004049977
000080 6b c1 f1 3e d4 94 00 be b0 3d a9 bd 7e 0e a7 3f
       0.4721788 -0.12556773 -0.08263719 1.3051298
000090 a7 56 8a be a2 16 6f 3f bb 83 27 3f b0 33 f3 3e
       -0.27019235 0.9339391 0.6543538 0.47500372
0000a0 68 69 c8 bf 3a f8 d6 be 83 9f 7b 3e cc 34 cb bf
       -1.5657167 -0.41986257 0.24572568 -1.5875487
0000b0 47 ae 0b 3f 86 81 00 40 1e 97 a3 3e 65 5b a0 be
       0.545628 2.0079055 0.3195123 -0.31319728
0000c0 6c 80 62 bf fd 5e 91 bf ba 36 76 3e 90 b2 50 3f
       -0.88477206 -1.1357113 0.24044314 0.81522465
0000d0 fe b4 a8 3d 88 cc c3 bf 21 72 8d bf d3 fa f6 be
       0.082376465 -1.5296793 -1.1050454 -0.4823824
0000e0 5c ad 8a bf 0e c0 2e 3f 71 2a 99 be d7 e3 85 3b
       -1.0834155 0.682618 -0.29915193 0.0040859985
0000f0 f6 04 a9 3f 77 74 f3 3e 34 95 fc be 21 a2 35 bf
       1.3204639 0.47549793 -0.49332583 -0.70950514
000100 f1 cf f5 3f ba fd 46 bd 28 40 c2 3f be 51 96 3f
       1.9204084 -0.048581816 1.5175829 1.1743696
000110 ea fb 06 3f 91 60 b5 3f a3 07 a3 bf 13 d8 08 be
       0.5272814 1.4170095 -1.2736706 -0.13363676
000120 85 7c 2a bf 4a c1 fb be 12 ea 43 bf 5b f0 8a 3f
       -0.6659625 -0.49170905 -0.7652904 1.0854601
000130 b5 53 8a bf 0e 24 58 3f df b1 4c bf 1e ea 2b 3f
       -1.0806795 0.84430015 -0.7995891 0.6715411
000140 0f 3e 32 3f fc af 81 3e 6e 3e c5 3e 69 e0 bb 3f
       0.69625944 0.25329578 0.38524193 1.467786
000150 8e 8a 51 be 63 92 dd 3e 9a 14 9e bf d1 07 8e 3f
       -0.2046301 0.43275747 -1.2350037 1.1096135
000160 09 1c f9 3e b9 63 0e 3f 8b 7b 27 bf e4 01 03 bf
       0.48654202 0.55620915 -0.65422887 -0.5117476
000170 77 74 ce 3f 0e a0 96 3f 3f 64 ec 3f c2 b8 d9 bf
       1.6129292 1.1767595 1.8468093 -1.7009509
000180 30 50 b6 3f a3 f5 7e 3f 66 6b ee 3f ca e2 0b 40
       1.4243221 0.9959356 1.8626525 2.185717
000190 15 2d ca bf c8 d7 f1 3f 3b bf 8d 3f 98 0c c4 3e
       -1.5795008 1.8893976 1.1073984 0.38290858
0001a0 49 c8 90 3d a1 68 b5 be 7b b3 97 3e 5e 3d 8c 3f
       0.07069451 -0.35431388 0.2962912 1.0956228
0001b0 c6 fc d9 be fc 28 bb 3f d2 32 01 bf a1 02 5b bf
       -0.42575663 1.4621882 -0.5046817 -0.85550886
0001c0 52 5c 3e 3f 25 6a 51 bf 81 51 e7 be be 7b 92 3f
       0.7435962 -0.8180259 -0.4517937 1.1444013
0001d0 7a ca 99 be 8d 01 4f be 9d ef 88 3f 91 07 0a be
       -0.3003729 -0.20215435 1.0698124 -0.13479449
0001e0 b8 22 75 3f a1 bc 13 be a2 b8 2b bf f4 54 fe bf
       0.957561 -0.14427425 -0.670786 -1.9869676
0001f0 8e af 1c bf 85 d6 fa 3e 72 d1 8f bf 29 f4 57 3e
       -0.61205375 0.4899179 -1.1235793 0.21089233
000200 2b cd 12 be 8d 75 ee be 46 36 33 40 63 64 27 3e
       -0.14336078 -0.4657406 2.8001876 0.16346888
000210 a1 ae 32 3f 2e 4a 1d bf f5 8e b6 be 9b 6d c9 3c
       0.6979771 -0.61441314 -0.35655943 0.024588397
000220 47 95 9d bd d2 d7 84 3e bb ba 1c bf 0d 0a 17 3f
       -0.07694488 0.25945908 -0.6122243 0.5899971
000230 cf ab 13 bd 16 4e 19 3f a6 ae df 3f 77 5b 03 3e
       -0.03605252 0.59884775 1.7475173 0.1282786
000240 8f 8a 63 3f ce 75 0d 3f f8 73 51 3f 74 20 80 3f
       0.888833 0.5525788 0.8181758 1.0009904
000250 28 02 b1 bf e4 3e 52 bf e3 9d 26 bf d5 06 80 3e
       -1.3828783 -0.82127213 -0.65084666 0.25005212
000260 c0 72 c4 be 6d f0 52 bf 7d 3f b8 3f 68 0e ea bf
       -0.38368797 -0.8239811 1.4394375 -1.8285646
000270 e8 93 8a 3d ce de 09 3e 8b 77 5b be a6 4c 2b 3f
       0.06766492 0.134639 -0.21432321 0.6691383
000280 36 4e 6c 3f 04 17 43 3e 37 13 be 3e d1 dd 13 3f
       0.9230684 0.19051749 0.37124035 0.5776034
000290 be 82 da be be 05 34 bf bc e5 9c 3e d7 d7 a3 3f
       -0.42677873 -0.7032126 0.30644023 1.2800244
0002a0 4e 61 84 bd c5 ad 4b 3f d9 b6 1b 3f 4f 9d f0 bd
       -0.06463872 0.79562026 0.6082588 -0.11748754
0002b0 db d5 bb bd ad d7 12 be 7c c8 27 bf 2a c5 94 3e
       -0.09171649 -0.14340086 -0.6554029 0.29056674
0002c0 66 2a ba 3e b7 a3 c6 bf eb 38 64 3e 69 ed 02 be
       0.36360472 -1.5518712 0.22287337 -0.12785877
0002d0 88 c0 14 3f c0 10 ec 3c 88 9b a4 3f 4a f0 ca 3e
       0.5810628 0.02881658 1.2859964 0.3963645
0002e0 f5 da 0e be e6 f0 a2 3f 99 76 55 3f 2b 18 51 3f
       -0.13950713 1.2729766 0.8338409 0.816775
0002f0 fa b1 39 bf cb 93 b8 3f c1 49 23 3d c5 14 95 3e
       -0.72537196 1.4420103 0.03986526 0.29117408
000300 b2 a7 70 3f b3 8d a3 3f 38 46 7d bf 88 1a 14 40
       0.9400588 1.2777618 -0.9893527 2.3141193
000310 28 d5 5f bf c4 fb 19 3f eb c7 7e bf 03 a2 f8 bd
       -0.87434626 0.6014979 -0.995238 -0.12140276
000320 c8 b3 8d 3f ce 2c af 3e d5 a8 56 bf 98 2f 84 bf
       1.107049 0.3421387 -0.8385137 -1.0327024
000330 87 8d 89 bf 4c 62 08 bf 86 5b d2 be cb f0 fa 3e
       -1.0746316 -0.5327499 -0.41085452 0.49011835
000340 e1 05 2d bf f6 ca 77 3f 38 ff 8e 3e 9c 01 b6 3f
       -0.67587095 0.9679407 0.2792909 1.4219241
000350 f6 5b 21 3f 19 c3 e3 3e 84 cd 0a 3e 72 8f ac bf
       0.63030946 0.44484785 0.1355496 -1.3481276
000360 a8 a3 a5 3e 7e 54 a4 3e 5c 9c b1 be db a5 7c 3f
       0.32351422 0.32095712 -0.34689605 0.98690575
000370 14 c3 54 bf d6 45 8e bf 4b 05 8a 3f 38 6a 27 c0
       -0.83110166 -1.1115062 1.0782865 -2.615858
000380 d1 39 59 bf 7f e5 7b 3f db a7 b3 be 68 36 11 40
       -0.84853846 0.9839706 -0.35089 2.2689457
000390 fe fc 9f 3e 38 d5 5c be bc 41 68 bf 73 4c 93 3f
       0.31247705 -0.21565711 -0.907253 1.1507705
0003a0 17 ff c6 bf 17 92 8e bf 65 99 5d 3f a8 97 2d bf
       -1.5546597 -1.1138333 0.86562186 -0.67809534
0003b0 e8 2f 77 bf 07 9c 2b bf 99 c8 a3 bc 0e a2 d3 bf
       -0.96557474 -0.67034954 -0.019993113 -1.653383
0003c0 3f 42 f8 bd e5 ad 33 3c 33 ee 83 3f e8 28 46 bf
       -0.121220104 0.010966753 1.0307068 -0.7740617
0003d0 73 50 84 3f 0f 86 74 bf d1 7b 92 3f 3b 5f 18 bf
       1.0337051 -0.9551706 1.1444036 -0.5952031
0003e0 eb ba 33 3f 73 d6 eb be ed 87 f0 3d 12 d8 60 3e
       0.7020709 -0.4606205 0.11744676 0.21957424
0003f0 66 f7 70 bf 4f 63 ef bf b7 82 a9 3f c8 37 41 bf
       -0.941275 -1.8702182 1.3243016 -0.7547574
